…
   0           []                               \n","                                                                                                  \n"," input_20 (InputLayer)          [(None, 96, 1)]      0           []                               \n","                                                                                                  \n"," input_21 (InputLayer)          [(None, 96, 1)]      0           []                               \n","                                                                                                  \n"," embedding (Embedding)          (None, 96, 1, 16)    1600        ['input_4[0][0]']                \n","                                                                                                  \n"," embedding_1 (Embedding)        (None, 96, 1, 16)    1600        ['input_5[0][0]']                \n","                                                                                                  \n"," embedding_2 (Embedding)        (None, 96, 1, 16)    1600        ['input_6[0][0]']                \n","                                                                                                  \n"," embedding_3 (Embedding)        (None, 96, 1, 16)    1600        ['input_7[0][0]']                \n","                                                                                                  \n"," embedding_4 (Embedding)        (None, 96, 1, 16)    1600        ['input_8[0][0]']                \n","                                                                                                  \n"," embedding_5 (Embedding)        (None, 96, 1, 16)    160         ['input_9[0][0]']                \n","                                                                                                  \n"," embedding_6 (Embedding)        (None, 96, 1, 16)    1600        ['input_10[0][0]']               \n","                                                                                                  \n"," embedding_7 (Embedding)        (None, 96, 1, 16)    160         ['input_11[0][0]']               \n","                                                                                                  \n"," embedding_8 (Embedding)        (None, 96, 1, 16)    160         ['input_12[0][0]']               \n","                                                                                                  \n"," embedding_9 (Embedding)        (None, 96, 1, 16)    160         ['input_13[0][0]']               \n","                                                                                                  \n"," embedding_10 (Embedding)       (None, 96, 1, 16)    160         ['input_14[0][0]']               \n","                                                                                                  \n"," embedding_11 (Embedding)       (None, 96, 1, 16)    1600        ['input_15[0][0]']               \n","                                                                                                  \n"," embedding_12 (Embedding)       (None, 96, 1, 16)    160         ['input_16[0][0]']               \n","                                                                                                  \n"," embedding_13 (Embedding)       (None, 96, 1, 16)    1600        ['input_17[0][0]']               \n","                                                                                                  \n"," embedding_14 (Embedding)       (None, 96, 1, 16)    160         ['input_18[0][0]']               \n","                                                                                                  \n"," embedding_15 (Embedding)       (None, 96, 1, 16)    160         ['input_19[0][0]']               \n","                                                                                                  \n"," embedding_16 (Embedding)       (None, 96, 1, 16)    160         ['input_20[0][0]']               \n","                                                                                                  \n"," embedding_17 (Embedding)       (None, 96, 1, 16)    160         ['input_21[0][0]']               \n","                                                                                                  \n"," noisy_dense (NoisyDense)       (None, 96, 1, 4)     204         ['embedding[0][0]']              \n","                                                                                                  \n"," noisy_dense_1 (NoisyDense)     (None, 96, 1, 4)     204         ['embedding_1[0][0]']            \n","                                                                                                  \n"," noisy_dense_2 (NoisyDense)     (None, 96, 1, 4)     204         ['embedding_2[0][0]']            \n","                                                                                                  \n"," noisy_dense_3 (NoisyDense)     (None, 96, 1, 4)     204         ['embedding_3[0][0]']            \n","                                                                                                  \n"," noisy_dense_4 (NoisyDense)     (None, 96, 1, 4)     204         ['embedding_4[0][0]']            \n","                                                                                                  \n"," noisy_dense_5 (NoisyDense)     (None, 96, 1, 4)     204         ['embedding_5[0][0]']            \n","                                                                                                  \n"," noisy_dense_6 (NoisyDense)     (None, 96, 1, 4)     204         ['embedding_6[0][0]']            \n","                                                                                                  \n"," noisy_dense_7 (NoisyDense)     (None, 96, 1, 4)     204         ['embedding_7[0][0]']            \n","                                                                                                  \n"," noisy_dense_8 (NoisyDense)     (None, 96, 1, 4)     204         ['embedding_8[0][0]']            \n","                                                                                                  \n"," noisy_dense_9 (NoisyDense)     (None, 96, 1, 4)     204         ['embedding_9[0][0]']            \n","                                                                                                  \n"," noisy_dense_10 (NoisyDense)    (None, 96, 1, 4)     204         ['embedding_10[0][0]']           \n","                                                                                                  \n"," noisy_dense_11 (NoisyDense)    (None, 96, 1, 4)     204         ['embedding_11[0][0]']           \n","                                                                                                  \n"," noisy_dense_12 (NoisyDense)    (None, 96, 1, 4)     204         ['embedding_12[0][0]']           \n","                                                                                                  \n"," noisy_dense_13 (NoisyDense)    (None, 96, 1, 4)     204         ['embedding_13[0][0]']           \n","                                                                                                  \n"," noisy_dense_14 (NoisyDense)    (None, 96, 1, 4)     204         ['embedding_14[0][0]']           \n","                                                                                                  \n"," noisy_dense_15 (NoisyDense)    (None, 96, 1, 4)     204         ['embedding_15[0][0]']           \n","                                                                                                  \n"," noisy_dense_16 (NoisyDense)    (None, 96, 1, 4)     204         ['embedding_16[0][0]']           \n","                                                                                                  \n"," noisy_dense_17 (NoisyDense)    (None, 96, 1, 4)     204         ['embedding_17[0][0]']           \n","                                                                                                  \n"," concatenate (Concatenate)      (None, 96, 18, 4)    0           ['noisy_dense[0][0]',            \n","                                                                  'noisy_dense_1[0][0]',          \n","                                                                  'noisy_dense_2[0][0]',          \n","                                                                  'noisy_dense_3[0][0]',          \n","                                          
…
                'noisy_dense_13[0][0]',         \n","                                                                  'noisy_dense_14[0][0]',         \n","                                                                  'noisy_dense_15[0][0]',         \n","                                                                  'noisy_dense_16[0][0]',         \n","                                                                  'noisy_dense_17[0][0]']         \n","                                                                                                  \n"," dropout_2 (Dropout)            (None, 96, 18, 4)    0           ['concatenate[0][0]']            \n","                                                                                                  \n"," cross (Cross)                  (None, 96, 18, 4)    20          ['concatenate[0][0]',            \n","                                                                  'dropout_2[0][0]']              \n","                                                                                                  \n"," dropout_3 (Dropout)            (None, 96, 18, 4)    0           ['cross[0][0]']                  \n","                                                                                                  \n"," cross_1 (Cross)                (None, 96, 18, 4)    20          ['concatenate[0][0]',            \n","                                                                  'dropout_3[0][0]']              \n","                                                                                                  \n"," dropout_4 (Dropout)            (None, 96, 18, 4)    0           ['cross_1[0][0]']                \n","                                                                                                  \n"," cross_2 (Cross)                (None, 96, 18, 4)    20          ['concatenate[0][0]',            \n","                                                                  'dropout_4[0][0]']              \n","                                                                                                  \n"," concatenate_1 (Concatenate)    (None, 96, 18, 16)   0           ['concatenate[0][0]',            \n","                                                                  'cross[0][0]',                  \n","                                                                  'cross_1[0][0]',                \n","                                                                  'cross_2[0][0]']                \n","                                                                                                  \n"," dropout_5 (Dropout)            (None, 96, 18, 16)   0           ['concatenate_1[0][0]']          \n","                                                                                                  \n"," dense_2 (Dense)                (None, 96, 18, 4)    68          ['dropout_5[0][0]']              \n","                                                                                                  \n"," input_2 (InputLayer)           [(None, 96, 18)]     0           []                               \n","                                                                                                  \n"," input_3 (InputLayer)           [(None, 96, 11)]     0           []                               \n","                                                                                                  \n"," reshape (Reshape)              (None, 96, 72)       0           ['dense_2[0][0]']                \n","                                                                                                  \n"," lstm_concat (Concatenate)      (None, 96, 101)      0           ['input_2[0][0]',                \n","                                                                  'input_3[0][0]',                \n","                                                                  'reshape[0][0]']                \n","                                                                                                  \n"," input_1 (InputLayer)           [(None, 224, 224, 3  0           []                               \n","                                )]                                                                \n","                                                                                                  \n"," dropout_6 (Dropout)            (None, 96, 101)      0           ['lstm_concat[0][0]']            \n","                                                                                                  \n"," random_color_distortion (Rando  (None, 224, 224, 3)  0          ['input_1[0][0]']                \n"," mColorDistortion)                                                                                \n","                                                                                                  \n"," dense_3 (Dense)                (None, 96, 32)       3264        ['dropout_6[0][0]']              \n","                                                                                                  \n"," random_flip (RandomFlip)       (None, 224, 224, 3)  0           ['random_color_distortion[0][0]']\n","                                                                                                  \n"," dropout_7 (Dropout)            (None, 96, 32)       0           ['dense_3[0][0]']                \n","                                                                                                  \n"," rescaling (Rescaling)          (None, 224, 224, 3)  0           ['random_flip[0][0]']            \n","                                                                                                  \n"," dense_4 (Dense)                (None, 96, 8)        264         ['dropout_7[0][0]']              \n","                                                                                                  \n"," pretrained (KerasLayer)        (None, 1024)         86743224    ['rescaling[0][0]']              \n","                                                                                                  \n"," flatten (Flatten)              (None, 768)          0           ['dense_4[0][0]']                \n","                                                                                                  \n"," dropout (Dropout)              (None, 1024)         0           ['pretrained[0][0]']             \n","                                                                                                  \n"," dropout_8 (Dropout)            (None, 768)          0           ['flatten[0][0]']                \n","                                                                                                  \n"," dense (Dense)                  (None, 256)          262400      ['dropout[0][0]']                \n","                                                                                                  \n"," dense_5 (Dense)                (None, 256)          196864      ['dropout_8[0][0]']              \n","                                                                                                  \n"," dropout_1 (Dropout)            (None, 256)          0           ['dense[0][0]']                  \n","                                                                                                  \n"," dropout_9 (Dropout)            (None, 256)          0           ['dense_5[0][0]']                \n","                                                                                                  \n"," dense_1 (Dense)                (None, 64)           16448       ['dropout_1[0][0]']              \n","                                                                                                  \n"," dense_6 (Dense)                (None, 64)           16448       ['dropout_9[0][0]']              \n","                                                                                                  \n"," concatenate_2 (Concatenate)    (None, 128)          0           ['dense_1[0][0]',                \n","                                                                  'dense_6[0][0]']                \n","                                                                                                  \n"," dropout_10 (Dropout)           (None, 128)          0           ['concatenate_2[0][0]']          \n","                                                                                                  \n"," weight_normalization (WeightNo  (None, 64)          16577       ['dropout_10[0][0]']             \n"," rmalization)                                                                                     \n","                                                                                                  \n"," concatenate_3 (Concatenate)    (None, 192)          0           ['concatenate_2[0][0]',          \n","                                                                  'weight_normalization[0][0]']   \n","                                                                                                  \n"," dropout_11 (Dropout)           (None, 192)          0           ['concatenate_3[0][0]']          \n","                                                                                                  \n"," weight_normalization_1 (Weight  (None, 64)          24769       ['dropout_11[0][0]']             \n"," Normalization)                                                                                   \n","                                                                                                  \n"," concatenate_4 (Concatenate)    (None, 256)          0           ['concatenate_2[0][0]',          \n","                                                                  'weight_normalization[0][0]',   \n","                                                                  'weight_normalization_1[0][0]'] \n","                                                                                                  \n"," dropout_12 (Dropout)           (None, 256)          0           ['concatenate_4[0][0]']          \n","                                                                                                  \n"," weight_normalization_2 (Weight  (None, 64)          32961       ['dropout_12[0][0]']             \n"," Normalization)                                                                                   \n","                                                                                                  \n"," dense_10 (Dense)               (None, 1)            65          ['weight_normalization_2[0][0]'] \n","                                                                                                  \n","==================================================================================================\n","Total params: 87,331,484\n","Trainable params: 549,977\n","Non-trainable params: 86,781,507\n","__________________________________________________
…
